(keras) K:\python\envs\keras>python source/deep-learning-with-keras-ja/ch01/keras_MINST_V2_2.py
Using TensorFlow backend.
60000 train samples
10000 test samples
_________________________________________________________________
Layer (type)                 Output Shape              Param #
=================================================================
dense_1 (Dense)              (None, 128)               100480
_________________________________________________________________
activation_1 (Activation)    (None, 128)               0
_________________________________________________________________
dense_2 (Dense)              (None, 128)               16512
_________________________________________________________________
activation_2 (Activation)    (None, 128)               0
_________________________________________________________________
dense_3 (Dense)              (None, 128)               16512
_________________________________________________________________
activation_3 (Activation)    (None, 128)               0
_________________________________________________________________
dense_4 (Dense)              (None, 128)               16512
_________________________________________________________________
activation_4 (Activation)    (None, 128)               0
_________________________________________________________________
dense_5 (Dense)              (None, 128)               16512
_________________________________________________________________
activation_5 (Activation)    (None, 128)               0
_________________________________________________________________
dense_6 (Dense)              (None, 128)               16512
_________________________________________________________________
activation_6 (Activation)    (None, 128)               0
_________________________________________________________________
dense_7 (Dense)              (None, 128)               16512
_________________________________________________________________
activation_7 (Activation)    (None, 128)               0
_________________________________________________________________
dense_8 (Dense)              (None, 10)                1290
_________________________________________________________________
activation_8 (Activation)    (None, 10)                0
=================================================================
Total params: 200,842
Trainable params: 200,842
Non-trainable params: 0
_________________________________________________________________
Train on 48000 samples, validate on 12000 samples
Epoch 1/20
48000/48000 [==============================] - 3s 71us/step - loss: 2.2566 - acc: 0.2632 - val_loss: 2.1363 - val_acc: 0.3557
…
